…
14/14 [==============================] - 1s 93ms/step - loss: 3.9799e-05 - accuracy: 1.0000 - true_positives: 180.0000 - true_negatives: 240.0000 - false_positives: 0.0000e+00 - false_negatives: 0.0000e+00 - auc: 1.0000
accuracy: 100.00%
Model: "sequential"
_________________________________________________________________
 Layer (type)                Output Shape              Param #   
=================================================================
 cropping2d (Cropping2D)     (None, 94, 99, 3)         0         
                                                                 
 conv2d (Conv2D)             (None, 92, 97, 64)        1792      
                                                                 
 max_pooling2d (MaxPooling2D  (None, 46, 48, 64)       0         
 )                                                               
                                                                 
 dropout (Dropout)           (None, 46, 48, 64)        0         
                                                                 
 flatten (Flatten)           (None, 141312)            0         
                                                                 
 dense (Dense)               (None, 256)               36176128  
                                                                 
 dense_1 (Dense)             (None, 1)                 257       
                                                                 
=================================================================
Total params: 36,178,177
Trainable params: 36,178,177
Non-trainable params: 0
_________________________________________________________________
Found 1512 images belonging to 2 classes.
 1/48 [..............................] - ETA: 15s
…
