…
36/36 [==============================] - 30s 853ms/step - loss: 0.6928 - accuracy: 0.5263 - true_positives: 0.0000e+00 - true_negatives: 600.0000 - false_positives: 0.0000e+00 - false_negatives: 540.0000 - auc: 0.5000
accuracy: 52.63%
Model: "sequential"
_________________________________________________________________
Layer (type)                 Output Shape              Param #   
=================================================================
cropping2d (Cropping2D)      (None, 94, 99, 3)         0         
_________________________________________________________________
conv2d (Conv2D)              (None, 92, 97, 64)        1792      
_________________________________________________________________
max_pooling2d (MaxPooling2D) (None, 46, 48, 64)        0         
_________________________________________________________________
dropout (Dropout)            (None, 46, 48, 64)        0         
_________________________________________________________________
flatten (Flatten)            (None, 141312)            0         
_________________________________________________________________
dense (Dense)                (None, 256)               36176128  
_________________________________________________________________
dense_1 (Dense)              (None, 1)                 257       
=================================================================
Total params: 36,178,177
Trainable params: 36,178,177
Non-trainable params: 0
_________________________________________________________________
Found 864 images belonging to 2 classes.
{'fp': array([378.,   0.]), 'fp_sum': 378.0, 'fn': array([  0., 378.]), 'fn_sum': 378.0, 'tp': array([486.,   0.]), 'tp_sum': 486.0, 'tn': array([  0., 486.]), 'tn_sum': 486.0, 'far': array([100.,   0.]), 'far_mean': 50.0, 'frr': array([  0., 100.]), 'frr_mean': 50.0}
…
