…
14/14 [==============================] - 3s 179ms/step - loss: 0.0598 - accuracy: 1.0000 - true_positives: 191.0000 - true_negatives: 228.0000 - false_positives: 0.0000e+00 - false_negatives: 0.0000e+00 - auc: 1.0000
accuracy: 100.00%
Model: "sequential"
_________________________________________________________________
Layer (type)                 Output Shape              Param #   
=================================================================
cropping2d (Cropping2D)      (None, 94, 99, 3)         0         
_________________________________________________________________
conv2d (Conv2D)              (None, 92, 97, 32)        896       
_________________________________________________________________
max_pooling2d (MaxPooling2D) (None, 46, 48, 32)        0         
_________________________________________________________________
dropout (Dropout)            (None, 46, 48, 32)        0         
_________________________________________________________________
conv2d_1 (Conv2D)            (None, 44, 46, 64)        18496     
_________________________________________________________________
max_pooling2d_1 (MaxPooling2 (None, 22, 23, 64)        0         
_________________________________________________________________
dropout_1 (Dropout)          (None, 22, 23, 64)        0         
_________________________________________________________________
flatten (Flatten)            (None, 32384)             0         
_________________________________________________________________
dense (Dense)                (None, 256)               8290560   
_________________________________________________________________
dense_1 (Dense)              (None, 1)                 257       
=================================================================
Total params: 8,310,209
Trainable params: 8,310,209
Non-trainable params: 0
_________________________________________________________________
Found 1512 images belonging to 2 classes.
{'fp': array([0., 0.]), 'fp_sum': 0.0, 'fn': array([0., 0.]), 'fn_sum': 0.0, 'tp': array([820., 692.]), 'tp_sum': 1512.0, 'tn': array([692., 820.]), 'tn_sum': 1512.0, 'far': array([0., 0.]), 'far_mean': 0.0, 'frr': array([0., 0.]), 'frr_mean': 0.0}
…
