…
32/32 [==============================] - 17s 546ms/step - loss: 0.1534 - accuracy: 0.9843 - true_positives: 464.0000 - true_negatives: 540.0000 - false_positives: 0.0000e+00 - false_negatives: 16.0000 - auc: 1.0000
accuracy: 98.43%
Model: "sequential"
_________________________________________________________________
Layer (type)                 Output Shape              Param #   
=================================================================
cropping2d (Cropping2D)      (None, 94, 99, 3)         0         
_________________________________________________________________
conv2d (Conv2D)              (None, 92, 97, 64)        1792      
_________________________________________________________________
max_pooling2d (MaxPooling2D) (None, 46, 48, 64)        0         
_________________________________________________________________
dropout (Dropout)            (None, 46, 48, 64)        0         
_________________________________________________________________
flatten (Flatten)            (None, 141312)            0         
_________________________________________________________________
dense (Dense)                (None, 256)               36176128  
_________________________________________________________________
dense_1 (Dense)              (None, 1)                 257       
=================================================================
Total params: 36,178,177
Trainable params: 36,178,177
Non-trainable params: 0
_________________________________________________________________
Found 972 images belonging to 2 classes.
{'fp': array([14.,  0.]), 'fp_sum': 14.0, 'fn': array([ 0., 14.]), 'fn_sum': 14.0, 'tp': array([540., 418.]), 'tp_sum': 958.0, 'tn': array([418., 540.]), 'tn_sum': 958.0, 'far': array([3.24074074, 0.        ]), 'far_mean': 1.6203703703703702, 'frr': array([0.        , 3.24074074]), 'frr_mean': 1.6203703703703702}
…
