…
32/32 [==============================] - 7s 207ms/step - loss: 0.6924 - accuracy: 0.5294 - true_positives: 0.0000e+00 - true_negatives: 540.0000 - false_positives: 0.0000e+00 - false_negatives: 480.0000 - auc: 0.5000
accuracy: 52.94%
Model: "sequential"
_________________________________________________________________
Layer (type)                 Output Shape              Param #   
=================================================================
cropping2d (Cropping2D)      (None, 94, 99, 3)         0         
_________________________________________________________________
conv2d (Conv2D)              (None, 92, 97, 64)        1792      
_________________________________________________________________
max_pooling2d (MaxPooling2D) (None, 46, 48, 64)        0         
_________________________________________________________________
dropout (Dropout)            (None, 46, 48, 64)        0         
_________________________________________________________________
flatten (Flatten)            (None, 141312)            0         
_________________________________________________________________
dense (Dense)                (None, 256)               36176128  
_________________________________________________________________
dense_1 (Dense)              (None, 1)                 257       
=================================================================
Total params: 36,178,177
Trainable params: 36,178,177
Non-trainable params: 0
_________________________________________________________________
Found 972 images belonging to 2 classes.
{'fp': array([432.,   0.]), 'fp_sum': 432.0, 'fn': array([  0., 432.]), 'fn_sum': 432.0, 'tp': array([540.,   0.]), 'tp_sum': 540.0, 'tn': array([  0., 540.]), 'tn_sum': 540.0, 'far': array([100.,   0.]), 'far_mean': 50.0, 'frr': array([  0., 100.]), 'frr_mean': 50.0}
…
